model/model_ok.ckpt (torch, 40535 bytes, 5 tensors)

layer1.0.weight f4 [3, 3, 3, 3]
00000000: f875 16be 6e1c 0c3e 9488 393c 57c2 d8b8
00000010: 6587 7fbd 2374 9a3d 97a0 933d 3506 043e
00000020: 4c15 203e a913 213c 3ffe b03d 4fb1 603d
00000030: f6e0 b33d 85d3 14bd 61cd a6bd 0aae 0cbe
00000040: f60f 19be e36d 363e e0c2 67bd 1f76 ffbd
00000050: f4cd 1bbe e407 953d 1377 42be 9c86 14be
00000060: f95d 2abc f41f 143c 5825 e53d 85c9 35be
00000070: a800 61bd 970b cebd 4cd9 a2bd 47fd 4a3d
00000080: f1b7 9abd b642 343e bf11 27be 4a17 bbbd
00000090: 10fd 02be 7e86 a0bc e28b 353e f419 333e
000000a0: 7d1a 383e bff4 5b3d bada 6bbd 5f00 abbc
000000b0: 475c c2bd 4860 b63d 1d05 9abd 397d 643d
000000c0: b551 b3bd 1246 0ebe e126 413e 27ee 873d
000000d0: 107e a53c d16c f43d a2b5 2e3e 719c e4bd
000000e0: c869 263e 82f0 223e 706d 333d 0af4 0fbe
000000f0: 5e80 023e 7523 383e 993e 3cbd 8eb9 223e
00000100: 344e bcbd 4396 c43d b199 b5bd 9d3d 36bd
00000110: 80f3 2abd 431c d73d e1e8 8c3d 4032 d7bd
00000120: aa52 b43d f864 50bd 3204 5c3d f045 f1bd
00000130: 1521 3a3e 18a4 2e3e 6317 0a3d 289d 00be
00000140: 38a4 c33d
-0.14693439 0.1368272 0.011324067 -0.00010335881 -0.06238498 0.075416826 0.072083645 0.12892993
0.15633124 0.0098313475 0.086422436 0.054856595 0.08783142 -0.036334533 -0.08144642 -0.13738266
-0.14947495 0.17815356 -0.05658233 -0.12473702 -0.15215284 0.07276896 -0.18990736 -0.14504474
-0.010398381 0.009040821 0.111887634 -0.17752655 -0.054932266 -0.10060804 -0.07951602 0.04955795
-0.07554615 0.17603573 -0.16315363 -0.091353014 -0.12791848 -0.01959538 0.17729142 0.17490369
0.17978854 0.053700205 -0.05758164 -0.0208742 -0.09490257 0.08905083 -0.075205065 0.055783484
-0.08755819 -0.13893917 0.18862487 0.06637221 0.020201713 0.119348176 0.17061475 -0.11162651
0.1625129 0.15912059 0.04380554 -0.14057937 0.1274428 0.17982276 -0.045958135 0.15891096
-0.091946036 0.09598973 -0.08867205 -0.044492353 -0.041736126 0.10503437 0.068803556 -0.10507631
0.088048294 -0.05087754 0.05371494 -0.11780918 0.18176682 0.17054784 0.03371371 -0.1255995
0.095528066

layer1.0.bias f4 [3]
00000000: 2334 eebd ea11 d8bd 89b6 58bd
-0.11631038 -0.10550292 -0.052908454

layer2.0.weight f4 [3, 3, 3, 3]
00000000: 43a3 32be beac fd3d 9ebe babd a785 cebd
00000010: 990f bcbd 9ff8 163c 4008 e8bd a420 29be
00000020: 02b2 69bd db10 05bc 151f 083e 3885 263e
00000030: a6d2 e33d 9411 edbd 739c 223e 4936 303d
00000040: a82c 8bbd 5976 b43d 89d8 a8bd 8b20 9abc
00000050: e713 baba 70e6 433d d526 c53d a801 c93d
00000060: 7aed 1b3d d5a5 163e bcad 15bd 5d2c 133b
00000070: 84ac 10be 6173 de3a 66bc 90bd 78b6 013e
00000080: be58 183e 2757 abba 7ddc 3e3e 0cbc 6dbd
00000090: 22c5 243c 35ab 1fbd 323e 0ebe 8ad3 2abe
000000a0: e03f 39bd e310 dfbc 527a be3d 5fd3 fbbb
000000b0: b9bc 843d 55a1 ccbd 7f72 043e d180 0ebb
000000c0: a826 94bd 35c6 303d 008a f5bd 4d73 b8bd
000000d0: 4dee 2ebe 3ceb 353d f876 2dbe 35e8 01bd
000000e0: bba9 9c3d cc40 dbbd d265 8abd 37d0 d23d
000000f0: 13dc 13be ee54 583d 5e0e f13d 0951 9dba
00000100: 975f 5a3d bc7c 243e 2f30 04be f3b0 8dbd
00000110: 9a43 0d3e 7f62 02be 8ff2 28be ad96 dfbb
00000120: 12f0 41be cfe3 923d 5d8f 0cbe 61a1 d2bd
00000130: e721 f73c d99c 40be 96c8 9d3d a2eb 0cbd
00000140: ea84 22be
-0.17445092 0.123864636 -0.091183886 -0.10084086 -0.091826625 0.009214549 -0.113296986 -0.16516358
-0.057054527 -0.008121694 0.13293107 0.16261756 0.111241624 -0.115756184 0.15879993 0.04302052
-0.06795627 0.088116355 -0.08244426 -0.018814346 -0.0014196605 0.047827184 0.09626547 0.09814769
0.038068272 0.14711697 -0.03654264 0.0022456862 -0.1412831 0.0016971641 -0.07067184 0.12667263
0.14877602 -0.0013072238 0.18638797 -0.058040664 0.010056766 -0.038981635 -0.13890913 -0.16682258
-0.04522693 -0.027229732 0.093006745 -0.0076851095 0.064813085 -0.09991709 0.12934302 -0.002174426
-0.072339356 0.043157775 -0.11989212 -0.09006367 -0.17083092 0.04441379 -0.16939914 -0.03171559
0.07649561 -0.107057184 -0.06757702 0.1029362 -0.1443942 0.05281537 0.117703184 -0.00120023
0.053313818 0.16063207 -0.12909006 -0.06918516 0.13795319 -0.12732886 -0.16498779 -0.006823382
-0.18939236 0.07172357 -0.13726564 -0.10284687 0.030167533 -0.18809833 0.07704274 -0.034404404
-0.15871015

layer2.0.bias f4 [3]
00000000: 2a1b ddbd 05a8 0dbe c2a8 42bd
-0.10796197 -0.13833626 -0.04752422

fc.weight f4 [1, 9408]
00000000: ed97 993b dfa9 333b c573 84bb db7e 823c
00000010: fd10 1bbc 6a65 dcbb 59df a1bb 0b40 853c
00000020: aff1 b2bc 9b90 d53b 3cc1 24bb a54f 84bc
00000030: c508 993c 5620 883c 64d2 683b 71de 8c3c
00000040: a569 e239 001f abb9 9f54 693a 3c30 56bc
00000050: e8bb 79bc 541b d23b 6fc0 723c d988 af3c
00000060: 3972 82bc 6829 0cbc 4a42 223c fe9f 9e3c
00000070: 6ab1 283a a172 933c 4e03 833c bece b53c
00000080: e559 133c 2e19 d73b abfe a23b c7bf b8bc
00000090: ffe9 cabc 5943 b1bc ec9c 6a3c b69d c23c
000000a0: 8a3a 9ebc 2c9b a1bc c4dd 82bb 493e 9fbc
000000b0: 976f b2bb 90f6 bf3c e4e0 c8bb 0421 62bb
000000c0: 689f 1dbc 6754 233b 861e 713c d544 ed3b
000000d0: c20a b8bc f6f5 c93c 9e2b a73b 52ed edbb
000000e0: ebc5 44bc 2ea7 733c 1504 27bc 1849 11ba
000000f0: 3710 9b3c fa9c 173c 0d2c 9539 c308 5fbc
00000100: 7fe4 9ebc bc8b 53bb d4b7 4dbc e630 bfbc
00000110: 27ed c83c 480a cfba 31d0 9fbc d1a3 603c
00000120: 4bee 1f3c b0dd fdbb b20f afbb 9254 4abc
00000130: b7e3 05bb 3c00 ae3c e3da 0a3b 2463 b6bb
00000140: 095e 3cbc a3ad a7bc 2b0c e83a bccb 03bc
00000150: cdca ac3c b4b0 39ba 3f0f a5bc 436d bdbc
00000160: 8850 b1bc 3c23 5b3b c9d0 c7bc 8706 9d3c
00000170: 8ae3 f73a ca82 a23b 5b9d 953c d728 6f3c
00000180: b97a abbc 86b4 1c3c c066 f63b 6bf2 94bc
00000190: 6a28 a73c 7165 293c c4c8 dbbb e0bb 2ebc
000001a0: 4cf9 a03c 6177 0d3c c650 a23c b400 653a
000001b0: c394 78bc 11d0 a73c 17eb 893c 58f6 b33c
000001c0: 2505 a03c 790f 4c3c a2ab 39bc 6255 74bc
000001d0: ff5f d3bb 9f7d 313c 5f06 123c 3ffc 8dbc
000001e0: 8b2e 7b3c 3f71 21bb 89dc 0b3c 92f1 c13c
000001f0: 69a5 5d3c 3f5c f1bb c955 73bc ecaa c9ba
00000200: f5cf 77bc 0745 acbc 5385 afbb 2c4e 973c
00000210: 184c ae3c 85c9 ccbb 5e8b 9c3c ab33 9bbc
00000220: 519b cbbb 9173 56bc 4c5a 89ba a2ca 913c
00000230: e9e9 943c 819a 6dbc c2ac 41bc d108 3e3c
00000240: 4a8f 95bc 9292 753b 155e b3bc cc29 bb3c
00000250: 906d 02ba 5ee9 2dbc 437e 17bc 263c 693b
00000260: 851a 2d3c f8a5 bf3c 5784 b83c c0a3 253c
00000270: a5db 033c c3f3 943a 3551 0fbc da3b 90bb
00000280: 226d 87bc 2a03 b83c 3016 b83b 52d9 1dbc
00000290: d65d 213c bc2c acbc 08c4 c23b e868 7a3c
000002a0: c1d5 30bc 58a0 043c aaa0 7ebc d37a 1dbc
000002b0: 33fa 4bbb 9333 57bc d359 a2bc 98c2 d0b8
000002c0: 94e1 fa3b 3318 8a3b 2263 26ba 55ba 5dbc
000002d0: 3339 c33b 07fe 51bc 590e 79bc 7ce9 33bc
000002e0: 4e9a 7b3b 9ea2 3fbb 54b2 c23c 90e8 53bc
000002f0: 6966 993c 97fd 8dbc 72e1 62bc 13a3 cc3c
00000300: 229a c7bc 68ab 853c 52b3 63bc 3b36 8a3c
00000310: 0d16 07bc 416a b5bc f944 8d39 730e 8bbc
00000320: e597 87bb a2c5 a33b 9a7f a63c 70a5 b23b
00000330: 6d7b 80bc 54a7 a83c 5a6b a03c b7d6 813c
00000340: 1f2a 32bc 43a6 b7bc 4bc9 f3bb d2fe 9dbc
00000350: 4d67 393c 3fb0 033c 359a 9e3c 1b09 8e3c
00000360: ceca d73a 935c c13c f788 8cbc 24f3 6f3c
00000370: db60 84bc 77e1 6b3c 8de2 9ebc dcb6 833c
00000380: c84c f53b 0987 66ba b397 8abb db0e ad3c
00000390: 962b c43c 461d 353c 9467 81bc d744 4c3c
000003a0: 0d3f c1bc 7888 5e3c c17b b63c dcdb 84bc
000003b0: abc4 8c3b 8467 19bc 6ab9 4039 0303 b7bc
000003c0: 7b85 8f3c 29ad c13c 9404 b13c 36c3 75bc
000003d0: c3fb a8bb 6c4b 7e3c b134 62bc 4c67 a73c
000003e0: 535e a83c c3af bfbc 38ea 97bc 523c 433c
000003f0: 8301 7cba dbbf 4abc 14b0 c83c c5c9 babc
0.0046873004 0.0027414483 -0.004042121 0.01592963 -0.0094645 -0.0067259567 -0.004939955 0.01626589
-0.02184376 0.0065174825 -0.002513959 -0.016151259 0.01868094 0.016616981 0.0035525793 0.017195912
0.0004318479 -0.00032638758 0.0008900854 -0.013073023 -0.015242554 0.006411949 0.014816388 0.021427559
-0.015923606 -0.008554794 0.0099035 0.0193634 0.0006435128 0.017998995 0.015992787 0.022193309
0.0089936005 0.006564281 0.0049742064 -0.022552384 -0.024769781 -0.02163856 0.01431964 0.023756843
-0.019315023 -0.019727312 -0.0039937217 -0.01943888 -0.0054454315 0.023433 -0.0061303247 -0.0034504542
-0.009620525 0.0024922134 0.01471675 0.0072408714 -0.022466067 0.024653416 0.005101635 -0.007260957
-0.012010078 0.014871402 -0.010193844 -0.0005542203 0.01892863 0.009253735 0.00028452315 -0.013612929
-0.019396065 -0.0032279333 -0.012556035 -0.023338746 0.024527146 -0.0015795911 -0.019508453 0.013710932
0.009761403 -0.0077473745 -0.005342447 -0.012349265 -0.0020429918 0.021240346 0.0021187596 -0.0055660177
-0.011497029 -0.020468539 0.0017703822 -0.0080441795 0.021092797 -0.0007083521 -0.020148871 -0.02312339
-0.021644846 0.003343775 -0.024391549 0.019168152 0.0018912416 0.004959439 0.01826351 0.014597139
-0.020932542 0.0095645245 0.007519573 -0.018182 0.020405013 0.010339127 -0.0067072827 -0.01066491
0.019650124 0.008634419 0.019813906 0.00087357615 -0.015172186 0.020484956 0.016835732 0.021968052
0.019533703 0.012454861 -0.011332424 -0.014912935 -0.0064506526 0.010833173 0.008912652 -0.017332194
0.015330921 -0.002463415 0.008536466 0.02367476 0.013528206 -0.007365733 -0.014851996 -0.0015386022
-0.015125264 -0.021029009 -0.0053564697 0.018469892 0.021276519 -0.006249609 0.019109424 -0.018945536
-0.0062135835 -0.013089077 -0.0010479181 0.017796818 0.018177943 -0.014502169 -0.011820974 0.011598782
-0.018256802 0.0037471396 -0.021895448 0.022847079 -0.00049754325 -0.010614721 -0.009246412 0.003558883
0.010565405 0.02339457 0.022524042 0.010109842 0.008047973 0.001136415 -0.008747389 -0.004401666
-0.01653153 0.022462446 0.0056178793 -0.009634333 0.009849032 -0.021017425 0.005943779 0.015283801
-0.01079315 0.00809487 -0.015541235 -0.009611803 -0.0031124472 -0.013134855 -0.019818222 -9.954459e-05
0.0076562855 0.0042143106 -0.00063471694 -0.013533195 0.0059577464 -0.0128169125 -0.015201175 -0.01098096
0.0038391533 -0.0029241215 0.023766674 -0.012933865 0.01872559 -0.017332835 -0.013847696 0.024980104
-0.024365488 0.016317084 -0.013897734 0.016871562 -0.008245003 -0.022145392 0.00026945004 -0.016974663
-0.0041379803 0.004997925 0.020324517 0.0054518506 -0.015683854 0.0205876 0.01958244 0.015849454
-0.0108743 -0.022418147 -0.0074397675 -0.019286547 0.011316133 0.008037626 0.019360641 0.017338326
0.0016463639 0.023603713 -0.017155154 0.014645372 -0.016159466 0.014397017 -0.019395137 0.016078405
0.0074859597 -0.00087939255 -0.0042295097 0.021125248 0.023946565 0.011054343 -0.01579646 0.012467585
-0.023589635 0.013582341 0.022275807 -0.016218118 0.0042959056 -0.009363059 0.00018379619 -0.022340303
0.017519703 0.02364214 0.021608628 -0.015000155 -0.0051569655 0.015520912 -0.013806508 0.020434998
0.02055279 -0.02339924 -0.018544301 0.011916237 -0.00096132624 -0.0123748435 0.024498023 -0.02280129
